PARAMETER ...
Namespace(model='PCT', batch_size=16, epoch=251, learning_rate=0.001, gpu='0', optimizer='Adam', log_dir=None, decay_rate=0.0001, npoint=2048, step_size=20, lr_decay=0.5, seed=0)
The number of training data is: 13998
The number of test data is: 2874
#parameters: 1626546
get_model(
  (sa1): PointNetSetAbstraction(
    (mlp_convs): ModuleList(
      (0): Conv2d(6, 64, kernel_size=(1, 1), stride=(1, 1))
      (1): Conv2d(64, 64, kernel_size=(1, 1), stride=(1, 1))
      (2): Conv2d(64, 128, kernel_size=(1, 1), stride=(1, 1))
    )
    (mlp_bns): ModuleList(
      (0): BatchNorm2d(64, eps=1e-05, momentum=0.1, affine=True, track_running_stats=True)
      (1): BatchNorm2d(64, eps=1e-05, momentum=0.1, affine=True, track_running_stats=True)
      (2): BatchNorm2d(128, eps=1e-05, momentum=0.1, affine=True, track_running_stats=True)
    )
  )
  (sa2): PointNetSetAbstraction(
    (mlp_convs): ModuleList(
      (0): Conv2d(131, 128, kernel_size=(1, 1), stride=(1, 1))
      (1): Conv2d(128, 128, kernel_size=(1, 1), stride=(1, 1))
      (2): Conv2d(128, 256, kernel_size=(1, 1), stride=(1, 1))
    )
    (mlp_bns): ModuleList(
      (0): BatchNorm2d(128, eps=1e-05, momentum=0.1, affine=True, track_running_stats=True)
      (1): BatchNorm2d(128, eps=1e-05, momentum=0.1, affine=True, track_running_stats=True)
      (2): BatchNorm2d(256, eps=1e-05, momentum=0.1, affine=True, track_running_stats=True)
    )
  )
  (sa3): PointNetSetAbstraction(
    (mlp_convs): ModuleList(
      (0): Conv2d(259, 256, kernel_size=(1, 1), stride=(1, 1))
      (1): Conv2d(256, 512, kernel_size=(1, 1), stride=(1, 1))
      (2): Conv2d(512, 1024, kernel_size=(1, 1), stride=(1, 1))
    )
    (mlp_bns): ModuleList(
      (0): BatchNorm2d(256, eps=1e-05, momentum=0.1, affine=True, track_running_stats=True)
      (1): BatchNorm2d(512, eps=1e-05, momentum=0.1, affine=True, track_running_stats=True)
      (2): BatchNorm2d(1024, eps=1e-05, momentum=0.1, affine=True, track_running_stats=True)
    )
  )
  (fp3): PointNetFeaturePropagation(
    (mlp_convs): ModuleList(
      (0): Conv1d(1280, 256, kernel_size=(1,), stride=(1,))
      (1): Conv1d(256, 256, kernel_size=(1,), stride=(1,))
    )
    (mlp_bns): ModuleList(
      (0): BatchNorm1d(256, eps=1e-05, momentum=0.1, affine=True, track_running_stats=True)
      (1): BatchNorm1d(256, eps=1e-05, momentum=0.1, affine=True, track_running_stats=True)
    )
  )
  (fp2): PointNetFeaturePropagation(
    (mlp_convs): ModuleList(
      (0): Conv1d(384, 256, kernel_size=(1,), stride=(1,))
      (1): Conv1d(256, 128, kernel_size=(1,), stride=(1,))
    )
    (mlp_bns): ModuleList(
      (0): BatchNorm1d(256, eps=1e-05, momentum=0.1, affine=True, track_running_stats=True)
      (1): BatchNorm1d(128, eps=1e-05, momentum=0.1, affine=True, track_running_stats=True)
    )
  )
  (fp1): PointNetFeaturePropagation(
    (mlp_convs): ModuleList(
      (0): Conv1d(150, 128, kernel_size=(1,), stride=(1,))
      (1): Conv1d(128, 128, kernel_size=(1,), stride=(1,))
      (2): Conv1d(128, 128, kernel_size=(1,), stride=(1,))
    )
    (mlp_bns): ModuleList(
      (0): BatchNorm1d(128, eps=1e-05, momentum=0.1, affine=True, track_running_stats=True)
      (1): BatchNorm1d(128, eps=1e-05, momentum=0.1, affine=True, track_running_stats=True)
      (2): BatchNorm1d(128, eps=1e-05, momentum=0.1, affine=True, track_running_stats=True)
    )
  )
  (attn1): SA_Layer(
    (q_conv): Conv1d(128, 32, kernel_size=(1,), stride=(1,), bias=False)
    (k_conv): Conv1d(128, 32, kernel_size=(1,), stride=(1,), bias=False)
    (v_conv): Conv1d(128, 128, kernel_size=(1,), stride=(1,))
    (trans_conv): Conv1d(128, 128, kernel_size=(1,), stride=(1,))
    (after_norm): BatchNorm1d(128, eps=1e-05, momentum=0.1, affine=True, track_running_stats=True)
    (act): ReLU(inplace=True)
    (softmax): Softmax(dim=-1)
  )
  (attn2): SA_Layer(
    (q_conv): Conv1d(128, 32, kernel_size=(1,), stride=(1,), bias=False)
    (k_conv): Conv1d(128, 32, kernel_size=(1,), stride=(1,), bias=False)
    (v_conv): Conv1d(128, 128, kernel_size=(1,), stride=(1,))
    (trans_conv): Conv1d(128, 128, kernel_size=(1,), stride=(1,))
    (after_norm): BatchNorm1d(128, eps=1e-05, momentum=0.1, affine=True, track_running_stats=True)
    (act): ReLU(inplace=True)
    (softmax): Softmax(dim=-1)
  )
  (attn3): SA_Layer(
    (q_conv): Conv1d(128, 32, kernel_size=(1,), stride=(1,), bias=False)
    (k_conv): Conv1d(128, 32, kernel_size=(1,), stride=(1,), bias=False)
    (v_conv): Conv1d(128, 128, kernel_size=(1,), stride=(1,))
    (trans_conv): Conv1d(128, 128, kernel_size=(1,), stride=(1,))
    (after_norm): BatchNorm1d(128, eps=1e-05, momentum=0.1, affine=True, track_running_stats=True)
    (act): ReLU(inplace=True)
    (softmax): Softmax(dim=-1)
  )
  (attn4): SA_Layer(
    (q_conv): Conv1d(128, 32, kernel_size=(1,), stride=(1,), bias=False)
    (k_conv): Conv1d(128, 32, kernel_size=(1,), stride=(1,), bias=False)
    (v_conv): Conv1d(128, 128, kernel_size=(1,), stride=(1,))
    (trans_conv): Conv1d(128, 128, kernel_size=(1,), stride=(1,))
    (after_norm): BatchNorm1d(128, eps=1e-05, momentum=0.1, affine=True, track_running_stats=True)
    (act): ReLU(inplace=True)
    (softmax): Softmax(dim=-1)
  )
  (conv_fuse): Sequential(
    (0): Conv1d(512, 128, kernel_size=(1,), stride=(1,), bias=False)
    (1): BatchNorm1d(128, eps=1e-05, momentum=0.1, affine=True, track_running_stats=True)
    (2): ReLU(inplace=True)
  )
  (conv1): Conv1d(128, 128, kernel_size=(1,), stride=(1,))
  (bn1): BatchNorm1d(128, eps=1e-05, momentum=0.1, affine=True, track_running_stats=True)
  (drop1): Dropout(p=0.5, inplace=False)
  (conv2): Conv1d(128, 50, kernel_size=(1,), stride=(1,))
)
No existing model, starting training from scratch...
Epoch 1 (1/251):
Learning rate:0.001000
BN momentum updated to: 0.100000
Train accuracy is: 0.81860
eval mIoU of Airplane       0.696413
eval mIoU of Bag            0.446516
eval mIoU of Cap            0.653328
eval mIoU of Car            0.580602
eval mIoU of Chair          0.866065
eval mIoU of Earphone       0.472595
…
