PARAMETER ...
Namespace(model='PCT_VecKM', batch_size=16, epoch=251, learning_rate=0.001, gpu='0', optimizer='Adam', log_dir=None, decay_rate=0.0001, npoint=2048, step_size=20, lr_decay=0.5, seed=0)
The number of training data is: 13998
The number of test data is: 2874
#parameters: 555442
get_model(
  (vkm_feat): Sequential(
    (0): VecKM(alpha=30, beta=9.0, d=256), positional_encoding=True
    (1): ComplexLinear(
      (fc_r): Linear(in_features=256, out_features=256, bias=True)
      (fc_i): Linear(in_features=256, out_features=256, bias=True)
    )
    (2): ComplexReLU()
    (3): ComplexLinear(
      (fc_r): Linear(in_features=256, out_features=256, bias=True)
      (fc_i): Linear(in_features=256, out_features=256, bias=True)
    )
  )
  (feat_trans): Sequential(
    (0): Conv1d(256, 128, kernel_size=(1,), stride=(1,), bias=False)
    (1): BatchNorm1d(128, eps=1e-05, momentum=0.1, affine=True, track_running_stats=True)
    (2): ReLU(inplace=True)
    (3): Conv1d(128, 128, kernel_size=(1,), stride=(1,), bias=False)
    (4): BatchNorm1d(128, eps=1e-05, momentum=0.1, affine=True, track_running_stats=True)
  )
  (attn1): SA_Layer(
    (q_conv): Conv1d(128, 32, kernel_size=(1,), stride=(1,), bias=False)
    (k_conv): Conv1d(128, 32, kernel_size=(1,), stride=(1,), bias=False)
    (v_conv): Conv1d(128, 128, kernel_size=(1,), stride=(1,))
    (trans_conv): Conv1d(128, 128, kernel_size=(1,), stride=(1,))
    (after_norm): BatchNorm1d(128, eps=1e-05, momentum=0.1, affine=True, track_running_stats=True)
    (act): ReLU(inplace=True)
    (softmax): Softmax(dim=-1)
  )
  (attn2): SA_Layer(
    (q_conv): Conv1d(128, 32, kernel_size=(1,), stride=(1,), bias=False)
    (k_conv): Conv1d(128, 32, kernel_size=(1,), stride=(1,), bias=False)
    (v_conv): Conv1d(128, 128, kernel_size=(1,), stride=(1,))
    (trans_conv): Conv1d(128, 128, kernel_size=(1,), stride=(1,))
    (after_norm): BatchNorm1d(128, eps=1e-05, momentum=0.1, affine=True, track_running_stats=True)
    (act): ReLU(inplace=True)
    (softmax): Softmax(dim=-1)
  )
  (attn3): SA_Layer(
    (q_conv): Conv1d(128, 32, kernel_size=(1,), stride=(1,), bias=False)
    (k_conv): Conv1d(128, 32, kernel_size=(1,), stride=(1,), bias=False)
    (v_conv): Conv1d(128, 128, kernel_size=(1,), stride=(1,))
    (trans_conv): Conv1d(128, 128, kernel_size=(1,), stride=(1,))
    (after_norm): BatchNorm1d(128, eps=1e-05, momentum=0.1, affine=True, track_running_stats=True)
    (act): ReLU(inplace=True)
    (softmax): Softmax(dim=-1)
  )
  (attn4): SA_Layer(
    (q_conv): Conv1d(128, 32, kernel_size=(1,), stride=(1,), bias=False)
    (k_conv): Conv1d(128, 32, kernel_size=(1,), stride=(1,), bias=False)
    (v_conv): Conv1d(128, 128, kernel_size=(1,), stride=(1,))
    (trans_conv): Conv1d(128, 128, kernel_size=(1,), stride=(1,))
    (after_norm): BatchNorm1d(128, eps=1e-05, momentum=0.1, affine=True, track_running_stats=True)
    (act): ReLU(inplace=True)
    (softmax): Softmax(dim=-1)
  )
  (conv_fuse): Sequential(
    (0): Conv1d(512, 128, kernel_size=(1,), stride=(1,), bias=False)
    (1): BatchNorm1d(128, eps=1e-05, momentum=0.1, affine=True, track_running_stats=True)
    (2): ReLU(inplace=True)
  )
  (conv1): Conv1d(128, 128, kernel_size=(1,), stride=(1,))
  (bn1): BatchNorm1d(128, eps=1e-05, momentum=0.1, affine=True, track_running_stats=True)
  (drop1): Dropout(p=0.5, inplace=False)
  (conv2): Conv1d(128, 50, kernel_size=(1,), stride=(1,))
)
No existing model, starting training from scratch...
Epoch 1 (1/251):
Learning rate:0.001000
BN momentum updated to: 0.100000
Train accuracy is: 0.87351
eval mIoU of Airplane       0.718770
eval mIoU of Bag            0.447789
eval mIoU of Cap            0.419349
eval mIoU of Car            0.570504
eval mIoU of Chair          0.856253
eval mIoU of Earphone       0.589733
…
