PARAMETER ...
Namespace(model='pointnet_VecKM', batch_size=16, epoch=251, learning_rate=0.001, gpu='0', optimizer='Adam', log_dir=None, decay_rate=0.0001, npoint=2048, step_size=20, lr_decay=0.5, seed=0)
The number of training data is: 13998
The number of test data is: 2874
get_model(
  (vkm_feat): Sequential(
    (0): VecKM(alpha=30, beta=6.0, d=256), positional_encoding=True
    (1): ComplexLinear(
      (fc_r): Linear(in_features=256, out_features=256, bias=True)
      (fc_i): Linear(in_features=256, out_features=256, bias=True)
    )
    (2): ComplexReLU()
    (3): ComplexLinear(
      (fc_r): Linear(in_features=256, out_features=1024, bias=True)
      (fc_i): Linear(in_features=256, out_features=1024, bias=True)
    )
  )
  (conv1): Conv1d(2064, 256, kernel_size=(1,), stride=(1,))
  (conv2): Conv1d(256, 256, kernel_size=(1,), stride=(1,))
  (conv3): Conv1d(256, 128, kernel_size=(1,), stride=(1,))
  (conv4): Conv1d(128, 50, kernel_size=(1,), stride=(1,))
  (bn1): BatchNorm1d(256, eps=1e-05, momentum=0.1, affine=True, track_running_stats=True)
  (bn2): BatchNorm1d(256, eps=1e-05, momentum=0.1, affine=True, track_running_stats=True)
  (bn3): BatchNorm1d(128, eps=1e-05, momentum=0.1, affine=True, track_running_stats=True)
)
No existing model, starting training from scratch...
Epoch 1 (1/251):
Learning rate:0.001000
BN momentum updated to: 0.100000
Train accuracy is: 0.86143
eval mIoU of Airplane       0.752839
eval mIoU of Bag            0.519318
eval mIoU of Cap            0.732002
eval mIoU of Car            0.567140
eval mIoU of Chair          0.859159
…
