PARAMETER ...
Namespace(model='pointnet2_VecKM', batch_size=16, epoch=251, learning_rate=0.001, gpu='0', optimizer='Adam', log_dir=None, decay_rate=0.0001, npoint=2048, step_size=20, lr_decay=0.5, seed=0)
The number of training data is: 13998
The number of test data is: 2874
#parameters: 1496626
get_model(
  (vkm_feat): Sequential(
    (0): VecKM(alpha=30, beta=9.0, d=256), positional_encoding=False
    (1): ComplexLinear(
      (fc_r): Linear(in_features=256, out_features=128, bias=True)
      (fc_i): Linear(in_features=256, out_features=128, bias=True)
    )
    (2): ComplexReLU()
    (3): ComplexLinear(
      (fc_r): Linear(in_features=128, out_features=128, bias=True)
      (fc_i): Linear(in_features=128, out_features=128, bias=True)
    )
  )
  (sa2): PointNetSetAbstraction(
    (mlp_convs): ModuleList(
      (0): Conv2d(131, 128, kernel_size=(1, 1), stride=(1, 1))
      (1): Conv2d(128, 128, kernel_size=(1, 1), stride=(1, 1))
      (2): Conv2d(128, 256, kernel_size=(1, 1), stride=(1, 1))
    )
    (mlp_bns): ModuleList(
      (0): BatchNorm2d(128, eps=1e-05, momentum=0.01, affine=True, track_running_stats=True)
      (1): BatchNorm2d(128, eps=1e-05, momentum=0.01, affine=True, track_running_stats=True)
      (2): BatchNorm2d(256, eps=1e-05, momentum=0.01, affine=True, track_running_stats=True)
    )
  )
  (sa3): PointNetSetAbstraction(
    (mlp_convs): ModuleList(
      (0): Conv2d(259, 256, kernel_size=(1, 1), stride=(1, 1))
      (1): Conv2d(256, 512, kernel_size=(1, 1), stride=(1, 1))
      (2): Conv2d(512, 1024, kernel_size=(1, 1), stride=(1, 1))
    )
    (mlp_bns): ModuleList(
      (0): BatchNorm2d(256, eps=1e-05, momentum=0.01, affine=True, track_running_stats=True)
      (1): BatchNorm2d(512, eps=1e-05, momentum=0.01, affine=True, track_running_stats=True)
      (2): BatchNorm2d(1024, eps=1e-05, momentum=0.01, affine=True, track_running_stats=True)
    )
  )
  (fp3): PointNetFeaturePropagation(
    (mlp_convs): ModuleList(
      (0): Conv1d(1280, 256, kernel_size=(1,), stride=(1,))
      (1): Conv1d(256, 256, kernel_size=(1,), stride=(1,))
    )
    (mlp_bns): ModuleList(
      (0): BatchNorm1d(256, eps=1e-05, momentum=0.01, affine=True, track_running_stats=True)
      (1): BatchNorm1d(256, eps=1e-05, momentum=0.01, affine=True, track_running_stats=True)
    )
  )
  (fp2): PointNetFeaturePropagation(
    (mlp_convs): ModuleList(
      (0): Conv1d(384, 256, kernel_size=(1,), stride=(1,))
      (1): Conv1d(256, 128, kernel_size=(1,), stride=(1,))
    )
    (mlp_bns): ModuleList(
      (0): BatchNorm1d(256, eps=1e-05, momentum=0.01, affine=True, track_running_stats=True)
      (1): BatchNorm1d(128, eps=1e-05, momentum=0.01, affine=True, track_running_stats=True)
    )
  )
  (fp1): PointNetFeaturePropagation(
    (mlp_convs): ModuleList(
      (0): Conv1d(150, 128, kernel_size=(1,), stride=(1,))
      (1): Conv1d(128, 128, kernel_size=(1,), stride=(1,))
      (2): Conv1d(128, 128, kernel_size=(1,), stride=(1,))
    )
    (mlp_bns): ModuleList(
      (0): BatchNorm1d(128, eps=1e-05, momentum=0.01, affine=True, track_running_stats=True)
      (1): BatchNorm1d(128, eps=1e-05, momentum=0.01, affine=True, track_running_stats=True)
      (2): BatchNorm1d(128, eps=1e-05, momentum=0.01, affine=True, track_running_stats=True)
    )
  )
  (conv1): Conv1d(128, 128, kernel_size=(1,), stride=(1,))
  (bn1): BatchNorm1d(128, eps=1e-05, momentum=0.01, affine=True, track_running_stats=True)
  (drop1): Dropout(p=0.5, inplace=False)
  (conv2): Conv1d(128, 50, kernel_size=(1,), stride=(1,))
)
No existing model, starting training from scratch...
Epoch 1 (1/251):
Learning rate:0.001000
BN momentum updated to: 0.100000
Train accuracy is: 0.84887
eval mIoU of Airplane       0.729445
eval mIoU of Bag            0.447109
eval mIoU of Cap            0.492911
eval mIoU of Car            0.589143
eval mIoU of Chair          0.830543
eval mIoU of Earphone       0.593596
…
