PARAMETER ...
Namespace(model='pointnet', batch_size=16, epoch=251, learning_rate=0.001, gpu='0', optimizer='Adam', log_dir=None, decay_rate=0.0001, npoint=2048, step_size=20, lr_decay=0.5, seed=0)
The number of training data is: 13998
The number of test data is: 2874
#parameters: 8342395
get_model(
  (stn): STN3d(
    (conv1): Conv1d(3, 64, kernel_size=(1,), stride=(1,))
    (conv2): Conv1d(64, 128, kernel_size=(1,), stride=(1,))
    (conv3): Conv1d(128, 1024, kernel_size=(1,), stride=(1,))
    (fc1): Linear(in_features=1024, out_features=512, bias=True)
    (fc2): Linear(in_features=512, out_features=256, bias=True)
    (fc3): Linear(in_features=256, out_features=9, bias=True)
    (relu): ReLU(inplace=True)
    (bn1): BatchNorm1d(64, eps=1e-05, momentum=0.1, affine=True, track_running_stats=True)
    (bn2): BatchNorm1d(128, eps=1e-05, momentum=0.1, affine=True, track_running_stats=True)
    (bn3): BatchNorm1d(1024, eps=1e-05, momentum=0.1, affine=True, track_running_stats=True)
    (bn4): BatchNorm1d(512, eps=1e-05, momentum=0.1, affine=True, track_running_stats=True)
    (bn5): BatchNorm1d(256, eps=1e-05, momentum=0.1, affine=True, track_running_stats=True)
  )
  (conv1): Conv1d(3, 64, kernel_size=(1,), stride=(1,))
  (conv2): Conv1d(64, 128, kernel_size=(1,), stride=(1,))
  (conv3): Conv1d(128, 128, kernel_size=(1,), stride=(1,))
  (conv4): Conv1d(128, 512, kernel_size=(1,), stride=(1,))
  (conv5): Conv1d(512, 2048, kernel_size=(1,), stride=(1,))
  (bn1): BatchNorm1d(64, eps=1e-05, momentum=0.1, affine=True, track_running_stats=True)
  (bn2): BatchNorm1d(128, eps=1e-05, momentum=0.1, affine=True, track_running_stats=True)
  (bn3): BatchNorm1d(128, eps=1e-05, momentum=0.1, affine=True, track_running_stats=True)
  (bn4): BatchNorm1d(512, eps=1e-05, momentum=0.1, affine=True, track_running_stats=True)
  (bn5): BatchNorm1d(2048, eps=1e-05, momentum=0.1, affine=True, track_running_stats=True)
  (fstn): STNkd(
    (conv1): Conv1d(128, 64, kernel_size=(1,), stride=(1,))
    (conv2): Conv1d(64, 128, kernel_size=(1,), stride=(1,))
    (conv3): Conv1d(128, 1024, kernel_size=(1,), stride=(1,))
    (fc1): Linear(in_features=1024, out_features=512, bias=True)
    (fc2): Linear(in_features=512, out_features=256, bias=True)
    (fc3): Linear(in_features=256, out_features=16384, bias=True)
    (relu): ReLU(inplace=True)
    (bn1): BatchNorm1d(64, eps=1e-05, momentum=0.1, affine=True, track_running_stats=True)
    (bn2): BatchNorm1d(128, eps=1e-05, momentum=0.1, affine=True, track_running_stats=True)
    (bn3): BatchNorm1d(1024, eps=1e-05, momentum=0.1, affine=True, track_running_stats=True)
    (bn4): BatchNorm1d(512, eps=1e-05, momentum=0.1, affine=True, track_running_stats=True)
    (bn5): BatchNorm1d(256, eps=1e-05, momentum=0.1, affine=True, track_running_stats=True)
  )
  (convs1): Conv1d(4944, 256, kernel_size=(1,), stride=(1,))
  (convs2): Conv1d(256, 256, kernel_size=(1,), stride=(1,))
  (convs3): Conv1d(256, 128, kernel_size=(1,), stride=(1,))
  (convs4): Conv1d(128, 50, kernel_size=(1,), stride=(1,))
  (bns1): BatchNorm1d(256, eps=1e-05, momentum=0.1, affine=True, track_running_stats=True)
  (bns2): BatchNorm1d(256, eps=1e-05, momentum=0.1, affine=True, track_running_stats=True)
  (bns3): BatchNorm1d(128, eps=1e-05, momentum=0.1, affine=True, track_running_stats=True)
)
No existing model, starting training from scratch...
Epoch 1 (1/251):
Learning rate:0.001000
BN momentum updated to: 0.100000
Train accuracy is: 0.67409
eval mIoU of Airplane       0.599069
eval mIoU of Bag            0.453111
eval mIoU of Cap            0.353584
eval mIoU of Car            0.241316
eval mIoU of Chair          0.788099
…
