Namespace(dataset='modelnet40', batch_size=32, test_batch_size=16, epochs=250, use_sgd=True, lr=0.0001, momentum=0.9, no_cuda=False, seed=0, eval=False, num_points=1024, dropout=0.5, model_path='', model='pointnet2_VecKM')
Using GPU : 0 from 1 devices
Experiment Model: pointnet2_VecKM
DataParallel(
  (module): get_model(
    (vkm): LocalGeometryEncoder(
      (vkm): VecKM(d=1024, alpha_list=[10, 20], beta_list=[5, 10])
      (feat_trans1): ComplexLinear(
        (fc_r): Linear(in_features=1024, out_features=512, bias=True)
        (fc_i): Linear(in_features=1024, out_features=512, bias=True)
      )
      (feat_trans2): ComplexLinear(
        (fc_r): Linear(in_features=512, out_features=256, bias=True)
        (fc_i): Linear(in_features=512, out_features=256, bias=True)
      )
      (feat_trans3): ComplexLinear(
        (fc_r): Linear(in_features=256, out_features=128, bias=True)
        (fc_i): Linear(in_features=256, out_features=128, bias=True)
      )
      (complex_relu): ComplexReLU()
    )
    (sa1): PointNetSetAbstraction(
      (mlp_convs): ModuleList(
        (0): Conv2d(131, 128, kernel_size=(1, 1), stride=(1, 1))
        (1): Conv2d(128, 128, kernel_size=(1, 1), stride=(1, 1))
        (2): Conv2d(128, 128, kernel_size=(1, 1), stride=(1, 1))
      )
      (mlp_bns): ModuleList(
        (0): BatchNorm2d(128, eps=1e-05, momentum=0.1, affine=True, track_running_stats=True)
        (1): BatchNorm2d(128, eps=1e-05, momentum=0.1, affine=True, track_running_stats=True)
        (2): BatchNorm2d(128, eps=1e-05, momentum=0.1, affine=True, track_running_stats=True)
      )
    )
    (sa2): PointNetSetAbstraction(
      (mlp_convs): ModuleList(
        (0): Conv2d(131, 128, kernel_size=(1, 1), stride=(1, 1))
        (1): Conv2d(128, 128, kernel_size=(1, 1), stride=(1, 1))
        (2): Conv2d(128, 256, kernel_size=(1, 1), stride=(1, 1))
      )
      (mlp_bns): ModuleList(
        (0): BatchNorm2d(128, eps=1e-05, momentum=0.1, affine=True, track_running_stats=True)
        (1): BatchNorm2d(128, eps=1e-05, momentum=0.1, affine=True, track_running_stats=True)
        (2): BatchNorm2d(256, eps=1e-05, momentum=0.1, affine=True, track_running_stats=True)
      )
    )
    (sa3): PointNetSetAbstraction(
      (mlp_convs): ModuleList(
        (0): Conv2d(259, 256, kernel_size=(1, 1), stride=(1, 1))
        (1): Conv2d(256, 512, kernel_size=(1, 1), stride=(1, 1))
        (2): Conv2d(512, 1024, kernel_size=(1, 1), stride=(1, 1))
      )
      (mlp_bns): ModuleList(
        (0): BatchNorm2d(256, eps=1e-05, momentum=0.1, affine=True, track_running_stats=True)
        (1): BatchNorm2d(512, eps=1e-05, momentum=0.1, affine=True, track_running_stats=True)
        (2): BatchNorm2d(1024, eps=1e-05, momentum=0.1, affine=True, track_running_stats=True)
      )
    )
    (fc1): Linear(in_features=1024, out_features=512, bias=True)
    (bn1): BatchNorm1d(512, eps=1e-05, momentum=0.1, affine=True, track_running_stats=True)
    (drop1): Dropout(p=0.4, inplace=False)
    (fc2): Linear(in_features=512, out_features=256, bias=True)
    (bn2): BatchNorm1d(256, eps=1e-05, momentum=0.1, affine=True, track_running_stats=True)
    (drop2): Dropout(p=0.4, inplace=False)
    (fc3): Linear(in_features=256, out_features=40, bias=True)
  )
)
Use SGD
train total time is 156.61961603164673
Train 0, loss: 2.679931, train acc: 0.447781, train avg acc: 0.276786
test total time is 44.0525598526001
Test 0, loss: 2.145029, test acc: 0.649109, test avg acc: 0.538047
train total time is 142.70855522155762
Train 1, loss: 2.207180, train acc: 0.628664, train avg acc: 0.470490
test total time is 44.09372568130493
…
