Namespace(dataset='modelnet40', batch_size=32, test_batch_size=16, epochs=250, use_sgd=True, lr=0.0001, momentum=0.9, no_cuda=False, seed=0, eval=False, num_points=1024, model_path='', model='pointnet')
Using GPU : 0 from 1 devices
Experiment Model: pointnet
DataParallel(
  (module): get_model(
    (feat): PointNetEncoder(
      (stn): STN3d(
        (conv1): Conv1d(3, 64, kernel_size=(1,), stride=(1,))
        (conv2): Conv1d(64, 128, kernel_size=(1,), stride=(1,))
        (conv3): Conv1d(128, 1024, kernel_size=(1,), stride=(1,))
        (fc1): Linear(in_features=1024, out_features=512, bias=True)
        (fc2): Linear(in_features=512, out_features=256, bias=True)
        (fc3): Linear(in_features=256, out_features=9, bias=True)
        (relu): ReLU()
        (bn1): BatchNorm1d(64, eps=1e-05, momentum=0.1, affine=True, track_running_stats=True)
        (bn2): BatchNorm1d(128, eps=1e-05, momentum=0.1, affine=True, track_running_stats=True)
        (bn3): BatchNorm1d(1024, eps=1e-05, momentum=0.1, affine=True, track_running_stats=True)
        (bn4): BatchNorm1d(512, eps=1e-05, momentum=0.1, affine=True, track_running_stats=True)
        (bn5): BatchNorm1d(256, eps=1e-05, momentum=0.1, affine=True, track_running_stats=True)
      )
      (conv1): Conv1d(3, 64, kernel_size=(1,), stride=(1,))
      (conv2): Conv1d(64, 128, kernel_size=(1,), stride=(1,))
      (conv3): Conv1d(128, 1024, kernel_size=(1,), stride=(1,))
      (bn1): BatchNorm1d(64, eps=1e-05, momentum=0.1, affine=True, track_running_stats=True)
      (bn2): BatchNorm1d(128, eps=1e-05, momentum=0.1, affine=True, track_running_stats=True)
      (bn3): BatchNorm1d(1024, eps=1e-05, momentum=0.1, affine=True, track_running_stats=True)
      (fstn): STNkd(
        (conv1): Conv1d(64, 64, kernel_size=(1,), stride=(1,))
        (conv2): Conv1d(64, 128, kernel_size=(1,), stride=(1,))
        (conv3): Conv1d(128, 1024, kernel_size=(1,), stride=(1,))
        (fc1): Linear(in_features=1024, out_features=512, bias=True)
        (fc2): Linear(in_features=512, out_features=256, bias=True)
        (fc3): Linear(in_features=256, out_features=4096, bias=True)
        (relu): ReLU()
        (bn1): BatchNorm1d(64, eps=1e-05, momentum=0.1, affine=True, track_running_stats=True)
        (bn2): BatchNorm1d(128, eps=1e-05, momentum=0.1, affine=True, track_running_stats=True)
        (bn3): BatchNorm1d(1024, eps=1e-05, momentum=0.1, affine=True, track_running_stats=True)
        (bn4): BatchNorm1d(512, eps=1e-05, momentum=0.1, affine=True, track_running_stats=True)
        (bn5): BatchNorm1d(256, eps=1e-05, momentum=0.1, affine=True, track_running_stats=True)
      )
    )
    (fc1): Linear(in_features=1024, out_features=512, bias=True)
    (fc2): Linear(in_features=512, out_features=256, bias=True)
    (fc3): Linear(in_features=256, out_features=40, bias=True)
    (dropout): Dropout(p=0.4, inplace=False)
    (bn1): BatchNorm1d(512, eps=1e-05, momentum=0.1, affine=True, track_running_stats=True)
    (bn2): BatchNorm1d(256, eps=1e-05, momentum=0.1, affine=True, track_running_stats=True)
    (relu): ReLU()
  )
)
Use SGD
Train 0, loss: 3.045858, train acc: 0.288986, train avg acc: 0.131160
test total time batch statistics: [… .
test total time is mean/std/min/max: 3.0346282345431668/0.016511584212624022/3.012608051300049/3.161087989807129
Test 0, loss: 2.626325, test acc: 0.427066, test avg acc: 0.293680
Train 1, loss: 2.504231, train acc: 0.484935, train avg acc: 0.291237
…
