Namespace(dataset='modelnet40', batch_size=32, test_batch_size=16, epochs=250, use_sgd=True, lr=0.0001, momentum=0.9, no_cuda=False, seed=0, eval=False, num_points=1024, dropout=0.5, model_path='', model='pointnet2')
Using GPU : 0 from 1 devices
Experiment Model: pointnet2
DataParallel(
  (module): get_model(
    (sa1): PointNetSetAbstraction(
      (mlp_convs): ModuleList(
        (0): Conv2d(3, 64, kernel_size=(1, 1), stride=(1, 1))
        (1): Conv2d(64, 64, kernel_size=(1, 1), stride=(1, 1))
        (2): Conv2d(64, 128, kernel_size=(1, 1), stride=(1, 1))
      )
      (mlp_bns): ModuleList(
        (0): BatchNorm2d(64, eps=1e-05, momentum=0.1, affine=True, track_running_stats=True)
        (1): BatchNorm2d(64, eps=1e-05, momentum=0.1, affine=True, track_running_stats=True)
        (2): BatchNorm2d(128, eps=1e-05, momentum=0.1, affine=True, track_running_stats=True)
      )
    )
    (sa2): PointNetSetAbstraction(
      (mlp_convs): ModuleList(
        (0): Conv2d(131, 128, kernel_size=(1, 1), stride=(1, 1))
        (1): Conv2d(128, 128, kernel_size=(1, 1), stride=(1, 1))
        (2): Conv2d(128, 256, kernel_size=(1, 1), stride=(1, 1))
      )
      (mlp_bns): ModuleList(
        (0): BatchNorm2d(128, eps=1e-05, momentum=0.1, affine=True, track_running_stats=True)
        (1): BatchNorm2d(128, eps=1e-05, momentum=0.1, affine=True, track_running_stats=True)
        (2): BatchNorm2d(256, eps=1e-05, momentum=0.1, affine=True, track_running_stats=True)
      )
    )
    (sa3): PointNetSetAbstraction(
      (mlp_convs): ModuleList(
        (0): Conv2d(259, 256, kernel_size=(1, 1), stride=(1, 1))
        (1): Conv2d(256, 512, kernel_size=(1, 1), stride=(1, 1))
        (2): Conv2d(512, 1024, kernel_size=(1, 1), stride=(1, 1))
      )
      (mlp_bns): ModuleList(
        (0): BatchNorm2d(256, eps=1e-05, momentum=0.1, affine=True, track_running_stats=True)
        (1): BatchNorm2d(512, eps=1e-05, momentum=0.1, affine=True, track_running_stats=True)
        (2): BatchNorm2d(1024, eps=1e-05, momentum=0.1, affine=True, track_running_stats=True)
      )
    )
    (fc1): Linear(in_features=1024, out_features=512, bias=True)
    (bn1): BatchNorm1d(512, eps=1e-05, momentum=0.1, affine=True, track_running_stats=True)
    (drop1): Dropout(p=0.4, inplace=False)
    (fc2): Linear(in_features=512, out_features=256, bias=True)
    (bn2): BatchNorm1d(256, eps=1e-05, momentum=0.1, affine=True, track_running_stats=True)
    (drop2): Dropout(p=0.4, inplace=False)
    (fc3): Linear(in_features=256, out_features=40, bias=True)
  )
)
Use SGD
Train 0, loss: 2.677744, train acc: 0.453379, train avg acc: 0.279581
test total time batch statistics: [… .
test total time is mean/std/min/max: 117.12836947140994/0.7409613687679231/115.73369598388672/119.20880126953125. 117.12836947140994
Test 0, loss: 2.164623, test acc: 0.632496, test avg acc: 0.524279
Train 1, loss: 2.198660, train acc: 0.628970, train avg acc: 0.469691
…
