Namespace(model='VecKM', k=500, kp=16, nbr=128)
source code saved to 2024-03-01 12:48:32.962175/*.py
alpha_list: [60, 90, 120]; beta_list: [10, 20]; d: 1024
NormalEstimator(
  (feat_trans1): ComplexConv1d(
    (conv_r): Conv1d(1024, 512, kernel_size=(1,), stride=(1,))
    (conv_i): Conv1d(1024, 512, kernel_size=(1,), stride=(1,))
  )
  (feat_trans2): ComplexConv1d(
    (conv_r): Conv1d(512, 256, kernel_size=(1,), stride=(1,))
    (conv_i): Conv1d(512, 256, kernel_size=(1,), stride=(1,))
  )
  (feat_bn1): NaiveComplexBatchNorm1d(
    (bn_r): BatchNorm1d(512, eps=1e-05, momentum=0.1, affine=True, track_running_stats=True)
    (bn_i): BatchNorm1d(512, eps=1e-05, momentum=0.1, affine=True, track_running_stats=True)
  )
  (feat_bn2): NaiveComplexBatchNorm1d(
    (bn_r): BatchNorm1d(256, eps=1e-05, momentum=0.1, affine=True, track_running_stats=True)
    (bn_i): BatchNorm1d(256, eps=1e-05, momentum=0.1, affine=True, track_running_stats=True)
  )
  (out_fc): Sequential(
    (0): Linear(in_features=256, out_features=128, bias=True)
    (1): BatchNorm1d(128, eps=1e-05, momentum=0.1, affine=True, track_running_stats=True)
    (2): ReLU()
    (3): Linear(in_features=128, out_features=3, bias=True)
  )
  (relu): ComplexReLU()
)
Epoch 0. train loss: 33.8744235066697; train time: 4.423035621643066s for 32 samples.
Epoch 1. train loss: 25.542164793238044; train time: 0.22632670402526855s for 32 samples.
Epoch 2. train loss: 23.876972783356905; train time: 0.22260761260986328s for 32 samples.
Epoch 3. train loss: 23.494633657857776; train time: 0.22203421592712402s for 32 samples.
…
